models/dqn.pt (torch, 80549 bytes, 6 tensors)

net.0.weight f4 [128, 17]
0	0x3f34342d	0.70392114
1	0xbdc683ae	-0.09693085
2	0xbe5a88e5	-0.21341284
3	0x3ca5b7a4	0.020229168
4	0x3c6360a8	0.013878025
5	0x3cdb7d18	0.026793048
6	0xbe6b7867	-0.22995149
7	0x3d1b4682	0.03790904
8	0x3e702783	0.23452573
9	0x3ebc1e53	0.36741886
10	0xbe6b1b48	-0.22959626
11	0x3defddad	0.11712203
12	0x3ed12524	0.4084865
13	0xbe52aff9	-0.2057494
14	0xbdcbb2fc	-0.09946248
15	0x3fb7cb25	1.435887
16	0x3dd65739	0.10465855
17	0xc08b52df	-4.353866
18	0x404834f1	3.1282313
19	0xbf822091	-1.0166188
20	0x4032ff23	2.7968223
21	0xbe7aa163	-0.24475627
22	0xc073e78d	-3.8110077
23	0xbdd51f53	-0.10406365
24	0xbefc5590	-0.4928403
25	0xc0486db5	-3.131696
26	0xbf1d0d31	-0.61348253
27	0xbd45c939	-0.048287604
28	0x3f9e8487	1.2384194
29	0x3ef56fea	0.47936946
30	0xbe2c4db3	-0.16826515
31	0xbe9dd814	-0.30828917
32	0xbf8ee48c	-1.1163497
33	0xc055a75b	-3.3383396
34	0xbe86194f	-0.26191184
35	0x3e2938ae	0.16525528
36	0x3f7fd12d	0.9992855
37	0xbf7be35b	-0.9839379
38	0x3f2ac21d	0.66702443
39	0x3efa3287	0.48866674
40	0xbfdb2b6d	-1.7122627
41	0xbf629a8d	-0.88517076
42	0xbecd0683	-0.4004403
43	0xc023bd62	-2.558434
44	0x3ea75ec6	0.32689494
45	0xc086a3b4	-4.2074833
46	0xc09ef2e0	-4.967148
47	0xbdb52875	-0.08845607
48	0xc0bf34a5	-5.9751763
49	0xc0793da7	-3.894388
50	0x3f6e47c2	0.93078244
51	0xc01a94e1	-2.4153368
52	0xbedfcf6f	-0.43712947
53	0xbf282832	-0.65686333
54	0xc002c117	-2.0430353
55	0x3fba3c27	1.4549607
56	0xc023a743	-2.5570838
57	0xc01dc756	-2.4652915
58	0x3f8bc2c9	1.0918819
59	0xbfd3381a	-1.6501496
60	0xbfdc5dfb	-1.721618
61	0x3fb330db	1.3999285
62	0x3f0ee736	0.5582155
63	0xbf8fc63c	-1.1232371
64	0x3f1df8c8	0.61707735
65	0x3ec389da	0.3819111
66	0xbf9dc9f1	-1.2327253
67	0xc003325a	-2.0499482
68	0xc04ce850	-3.2016792
69	0x3fde9eaf	1.7392176
70	0xc00d4795	-2.207494
71	0xc0072cbb	-2.1121051
72	0x3ffb163b	1.9616159
73	0xc00e6f42	-2.2255406
74	0xc006f09a	-2.1084352
75	0x3c2d2370	0.010567531
76	0xc05abdc9	-3.4178336
77	0xc014f695	-2.3275502
78	0x3eacfcd4	0.33786643
79	0xc04f6043	-3.2402503
80	0xbfb3cc82	-1.4046786
81	0xbd975940	-0.0739007
82	0xbf52fbf2	-0.8241569
83	0xbfb80a08	-1.4378061
84	0xc03f992d	-2.993724
85	0xbf521314	-0.8206036
86	0xbff0dddd	-1.8817707
87	0xc00feb6a	-2.2487435
88	0x3fd9ecef	1.7025431
89	0x3fc53248	1.540597
90	0xbeba49d7	-0.3638446
91	0xbfc41080	-1.5317535
92	0x3e5de1a0	0.216681
93	0xbf62c3ed	-0.8858021
94	0xc02247e4	-2.5356379
95	0x3f56a707	0.83848614
96	0xbf878eb2	-1.0590422
97	0xc021fe53	-2.5311477
98	0x3f2b3491	0.66877085
99	0xbd8be7ed	-0.06831346
100	0xbf716b53	-0.9430439
101	0x3bde24ea	0.006779303
102	0xbe29e755	-0.16592152
103	0x3ca78b59	0.020452188
104	0xbe36cdc9	-0.17851938
105	0xbe52e7f3	-0.20596294
106	0x3e1e620a	0.15467086
107	0x3e2baed2	0.16765907
108	0x3e12d35c	0.1433844
109	0xbcfc3d15	-0.030790845
110	0xbcc7c575	-0.024386147
111	0xbdd62246	-0.10455756
112	0xbe419d0d	-0.18907566
113	0x3e10a9e4	0.14127308
114	0x3d697f1c	0.057005987
115	0xbdd017fe	-0.10160826
116	0xbe007917	-0.12546192
117	0xbe2e9388	-0.17048466
118	0xbe6ab38c	-0.22920054
119	0xbfcb3f09	-1.5878612
120	0x3efc700c	0.49304235
121	0xbfe6f9a2	-1.8044932
122	0xc001f251	-2.0304148
123	0xbe31250a	-0.17299286
124	0xbefb3674	-0.49064982
125	0xbeef917f	-0.46790692
126	0x3eefcfac	0.4683813
127	0xbfc3706d	-1.5268685
128	0xbfbb62e2	-1.4639552
129	0xbf84a778	-1.0363607
130	0xbfb116e7	-1.3835114
131	0xbf3558d2	-0.70838654
132	0xbe63dc5a	-0.22252026
133	0xbe47a50d	-0.19496556
134	0xbf8be7ec	-1.0930152
135	0xbfae1f0a	-1.3603222
136	0x3ea18d2c	0.31553018
137	0xbdaa2ce4	-0.083093435
138	0xbd8a0b7f	-0.06740474
139	0x3e5e45cc	0.21706313
140	0xbe862d3d	-0.2620639
141	0xbe25cfaf	-0.16192506
142	0x3e6bc7e8	0.23025477
143	0xbeda34ce	-0.42618412
144	0xbd94a83e	-0.07258652
145	0x3e4348d7	0.19070755
146	0xbe86c027	-0.26318476
147	0x3d01816e	0.031617574
148	0x3e0b182e	0.13583443
149	0xbf1365ce	-0.57577217
150	0xbdbd79c1	-0.09251738
151	0xbde114a0	-0.10990262
152	0xc0415a7b	-3.0211475
153	0xc05ce421	-3.451424
154	0x3fa537f3	1.2907699
155	0xc110ce15	-9.050313
156	0xc014b762	-2.3236928
157	0xbf1d2994	-0.6139157
158	0xc0a32039	-5.0976834
159	0xbf25a0f3	-0.64698714
160	0x3c2e2e1c	0.0106311105
161	0x3de17d59	0.11010236
162	0x3f4f4c35	0.8097566
163	0xbfdba51c	-1.7159762
164	0xbf80573c	-1.0026622
165	0x3f4526a4	0.77012086
166	0x3f873ac6	1.0564811
167	0xc002a1b9	-2.0411208
168	0xba86781e	-0.0010259186
169	0xc10533ad	-8.325116
170	0xbcecb9d4	-0.028897204
171	0x3d99e01a	0.07513447
172	0xbe75a987	-0.23990451
173	0x3ed1cc8b	0.40976366
174	0xbd6d4215	-0.05792435
175	0x3e8c28e6	0.27374953
176	0x3f2be0bc	0.6713979
177	0x3d196278	0.037447423
178	0x3e2fe7b7	0.17178236
179	0x3ec9c299	0.3940628
180	0x3d6dd08c	0.058060214
181	0xbd864b33	-0.06557312
182	0x3d6859fe	0.05672645
183	0xbe7684ac	-0.24074048
184	0x3d05ac33	0.032634925
185	0x3fa97c28	1.3241014
186	0x3e2a1c43	0.16612343
187	0xbfd9c0ea	-1.7011998
188	0x3f8791e6	1.05914
189	0xc025eadd	-2.59246
190	0xbf9c0a33	-1.2190613
191	0x3f7684e4	0.96296525
192	0x3daa82e4	0.08325747
193	0xbfd10e04	-1.6332402
194	0x3f6db48b	0.9285361
195	0xbff53178	-1.9155722
196	0xbf696e6f	-0.91184133
197	0x3f80becf	1.005823
198	0xc0ce1dce	-6.4411383
199	0xc00ac2f6	-2.1681495
200	0x3f0f917c	0.56081367
201	0xc00ae38e	-2.1701388
202	0xbfc19f58	-1.5126753
203	0xbfa6f992	-1.3044913
204	0xbf05dc40	-0.522892
205	0x400fce8b	2.2469814
206	0xc0d130c8	-6.5372047
207	0x3e36d34d	0.17854042
208	0x3dfe1e5c	0.12408134
209	0xc095ac82	-4.677308
210	0xbf0ae0a6	-0.54249036
211	0x3eb0b66b	0.34514174
212	0xc0400ec4	-3.0009012
213	0xbf07292f	-0.52797216
214	0xbe337bae	-0.17527649
215	0xc051a0f2	-3.2754483
216	0xbed0c57d	-0.40775672
217	0xbe11dd02	-0.14244464
218	0xc06d7867	-3.7104738
219	0xbe8486c9	-0.25884083
220	0xc0d67706	-6.702029
221	0xc031b857	-2.7768762
222	0x401cdba9	2.450907
223	0xc0536f71	-3.3036768
224	0xbf9e5a78	-1.2371359
225	0x4017a7c6	2.369615
226	0xbf2970ac	-0.6618755
227	0xc0169e3c	-2.3534079
228	0x3f168e64	0.5881102
229	0xc08c473b	-4.383695
230	0xbfc204da	-1.515773
231	0x3f65a1e0	0.89700127
232	0xc04050c1	-3.0049288
233	0xbf46cdc3	-0.7765772
234	0x3e018be0	0.12651014
235	0xc04d1381	-3.2043154
236	0xbfa2ac7e	-1.270889
237	0xbfc9ee0b	-1.577577
238	0xbdca98e7	-0.09892445
239	0xbda2fc5d	-0.07958291
240	0xbe79ebf9	-0.24406423
241	0xbe97f878	-0.29681754
242	0x3e12f2aa	0.14350381
243	0xbe1027d8	-0.14077699
244	0x3bdcd6db	0.00673948
245	0xbd5e4b7d	-0.05427121
246	0xbc204b9d	-0.009783653
247	0x3d823ab2	0.063588515
248	0x3c4c47dd	0.012468305
249	0x3e38e939	0.18057717
250	0x3d86fd2b	0.06591257
251	0x3cb228cf	0.021747975
252	0xbd04e79d	-0.032447446
253	0xbe2ea7fb	-0.17056267
254	0x3dce2c86	0.10067086
255	0x3eaed3bb	0.34145913

net.0.bias f4 [128]
0	0xbf0b8911	-0.5450602
1	0xbe0e0bb8	-0.13871658
2	0x3f56f7d2	0.83971894
3	0xbe8e73e3	-0.2782279
4	0x3e4a9aae	0.19785568
5	0xbe7af2d9	-0.24506702
6	0xbe1b94c2	-0.15193465
7	0xbd70aa10	-0.058755934
8	0x4062bdfb	3.5428455
9	0x3ec72958	0.3889873
10	0xbea8d060	-0.32971478
11	0xbc93adcc	-0.018027209
12	0xbed11b7f	-0.4084129
13	0x3dc0510e	0.0939046
14	0xbe9f8f71	-0.31164125
15	0x3c3c5cee	0.011496766
16	0xbe3da676	-0.18520531
17	0xbf03afc0	-0.5144005
18	0xbf03558c	-0.5130241
19	0xbed41ed1	-0.4142976
20	0xbe7a9fdf	-0.24475048
21	0xbf21951d	-0.63118154
22	0xbe9e4d8c	-0.3091854
23	0xbf45b1b5	-0.77224284
24	0xbef3becf	-0.47606513
25	0xbea23486	-0.31680697
26	0xbe125523	-0.1429029
27	0xbd71c303	-0.05902387
28	0xbec88117	-0.39160988
29	0x401fedd8	2.4988918
30	0xbd713f5d	-0.05889832
31	0xbdf46739	-0.11933751
32	0xbe07c346	-0.13258085
33	0x400082a2	2.0079732
34	0xbcdcda09	-0.026959436
35	0xbea1c42b	-0.31594977
36	0xbe7b12cc	-0.24518889
37	0xbe724543	-0.23659234
38	0x3c84243b	0.016130557
39	0xbf280a41	-0.65640646
40	0xbe9fdf17	-0.31224892
41	0x3eb331d1	0.34998944
42	0x3df9b76c	0.12193188
43	0xbeb151b6	-0.34632653
44	0xbde59ec2	-0.11211921
45	0xbe3ca4f5	-0.18422301
46	0xbdbeae38	-0.09310573
47	0x3e8ae6c6	0.2712919
48	0xbf00e04e	-0.5034226
49	0x3f18b5e2	0.5965253
50	0x3f376b99	0.71648556
51	0x3fe3b284	1.7788854
52	0x3e7b1a5f	0.24521779
53	0xbe304eca	-0.17217556
54	0xbc800cc3	-0.015631085
55	0xbf4280dc	-0.75977874
56	0xbe9fad74	-0.31187022
57	0xbde17ec3	-0.11010506
58	0xbe7a3329	-0.24433579
59	0xbef84ef2	-0.4849773
60	0xbd429ebe	-0.04751467
61	0xbe80b543	-0.25138292
62	0xbdd14d77	-0.10219853
63	0xbf168bf3	-0.58807296
64	0xbe9f82a3	-0.31154355
65	0xbe216f0d	-0.15765019
66	0x3f0fe1dc	0.5620401
67	0xbf032345	-0.5122569
68	0x3f20edd6	0.6286291
69	0x3fbf8fb3	1.4965729
70	0x3ea17229	0.3153241
71	0xbea7aa1d	-0.32746974
72	0x3e8929ca	0.26789695
73	0xbcfa14d7	-0.030527515
74	0xbeaee043	-0.34155473
75	0xbf241f60	-0.64110374
76	0xbeb8f742	-0.36126143
77	0xbeaf9f01	-0.34300998
78	0xbef9ec07	-0.48812887
79	0xbe94afcd	-0.29040375
80	0x3f7917ed	0.9730213
81	0x3ed5b9ad	0.41743222
82	0xbe279ef3	-0.16369228
83	0x4015d066	2.3408446
84	0x3f853625	1.0407149
85	0xbefe7694	-0.49699843
86	0xbecf19ac	-0.40449274
87	0xbef0ea31	-0.47053674
88	0xbe61bb3a	-0.22044078
89	0x405120c7	3.2676256
90	0xbf3d077a	-0.73839533
91	0x3f76c548	0.9639478
92	0xbe24834b	-0.1606571
93	0x3f693bab	0.9110667
94	0xbf0fc1b7	-0.5615496
95	0xbe96989b	-0.29413304
96	0xbf943c1b	-1.1580843
97	0xbf2816aa	-0.6565958
98	0x3f91d714	1.1393762
99	0xbdeed1e9	-0.11661131
100	0xbf164077	-0.58692116
101	0x401b0384	2.4220896
102	0x401eaf57	2.479452
103	0xbe3081a3	-0.17236952
104	0xbe39efc2	-0.18157867
105	0x3c8d85d6	0.017275732
106	0xbe928035	-0.2861344
107	0xbe416803	-0.18887334
108	0xbf1b69dd	-0.6070841
109	0x3f355eaf	0.708476
110	0xbf7425e8	-0.9537034
111	0xbcf264ff	-0.029589174
112	0xbe323891	-0.17404391
113	0xbfe10a39	-1.7581245
114	0x3cf9e7ce	0.03050604
115	0xbf9efd21	-1.2420999
116	0xbf252bd2	-0.6451999
117	0xbe97688f	-0.2957196
118	0xbf44b627	-0.7684044
119	0xbf4da648	-0.8033185
120	0xbeb4494e	-0.35212177
121	0xbee2a3e3	-0.4426566
122	0xbe6174fe	-0.22017285
123	0xbf1c861f	-0.6114215
124	0xbf53f4ec	-0.82795596
125	0x3f9a84ec	1.2071815
126	0xbdaa8d53	-0.08327737
127	0xbda2fe83	-0.079587005

net.2.weight f4 [128, 128]
0	0xbb01fe3b	-0.001983537
1	0xbd73608c	-0.059418246
2	0x3d40baf9	0.04705331
3	0x3b831b94	0.0040010903
4	0x3d200411	0.039066378
5	0x3d4c40ac	0.049866363
6	0x3d02b6e9	0.031912718
7	0x3d887bd9	0.06664247
8	0xbdb6f225	-0.08932904
9	0x3ce2ffb1	0.027709814
10	0xbdb5eb53	-0.08882775
11	0xbda4ce5e	-0.08047174
12	0x3d692fc7	0.05693033
13	0xbdb85547	-0.0900064
14	0x3c2f7a46	0.010710305
15	0xbcb200b9	-0.02172886
16	0x3d49ebd9	0.049297187
17	0x3ccefe42	0.025267724
18	0xbdbc360f	-0.09189998
19	0xbe051b7f	-0.1299877
20	0x3db2bfff	0.087280266
21	0xbd2d3c04	-0.042293563
22	0x3cdc8b29	0.026921825
23	0x3cc2b91b	0.023769906
24	0x3d334f82	0.043776996
25	0x3d84dccb	0.064874254
26	0x3d936427	0.07196837
27	0xbbd90cce	-0.006623841
28	0x3d689b98	0.05678901
29	0xbdc23643	-0.09483006
30	0xbdb22486	-0.086983725
31	0xbd2ea640	-0.042639017
32	0xbd8c8da3	-0.068629526
33	0x3c54ecb4	0.012995888
34	0xbd4fdbfe	-0.05074691
35	0xbdbd192b	-0.09233316
36	0xbd830953	-0.06398263
37	0xbb7e86a7	-0.0038837583
38	0x3d78d926	0.060753964
39	0xbda37157	-0.07980602
40	0x3d63bcc4	0.055599943
41	0x3d8fa99b	0.070147716
42	0xbd84cc1e	-0.06484245
43	0xbd815f8b	-0.063170515
44	0xbd914cb4	-0.07094708
45	0x3c8b7d24	0.017027445
46	0xbd3ff02d	-0.04685991
47	0x3c5d48ff	0.013506173
48	0xbcc3b955	-0.023892084
49	0x3d76b923	0.060235154
50	0xbd268068	-0.0406498
51	0x3d78b2cc	0.06071739
52	0xbba4b1f1	-0.005026095
53	0xbda0ab6f	-0.07845198
54	0x3c11f1b2	0.008907722
55	0xbd96d910	-0.0736562
56	0xbd5d22cb	-0.05398826
57	0x3c6f89ef	0.014620288
58	0xbc548eb2	-0.012973474
59	0xbdfc0126	-0.123049065
60	0xbd6e32e3	-0.058153998
61	0xbd3ee3ce	-0.04660397
62	0xbd18bc08	-0.037288696
63	0xbd653f44	-0.055968538
64	0x3d5acb08	0.053416282
65	0xbcce8e4e	-0.02521434
66	0xbdcb385d	-0.0992286
67	0xbd8138e5	-0.0630968
68	0xbd781e86	-0.060575984
69	0xbda6337d	-0.08115289
70	0xbd51315c	-0.051072463
71	0x3d8b3a7e	0.06798266
72	0xbc83249f	-0.016008673
73	0x3d8f1543	0.06986477
74	0xbda80a67	-0.08205109
75	0x3d96b04e	0.07357846
76	0x3d5e4021	0.054260377
77	0x3d24a346	0.040194772
78	0x3c180aea	0.009279946
79	0x3da7e6ab	0.08198293
80	0xbb727a02	-0.0036998992
81	0xbd1faadf	-0.038981315
82	0xbd27c276	-0.040956937
83	0xbe13c7fd	-0.14431758
84	0xbc5a443a	-0.013321931
85	0x3d456832	0.04819507
86	0x3cf694d3	0.030100262
87	0x3d0ce57c	0.03439854
88	0xbd877b36	-0.066152975
89	0xbdcf9633	-0.1013607
90	0xbd4b67c6	-0.049659513
91	0x3d5ab56c	0.053395674
92	0x3d0c88aa	0.03431002
93	0xbcb54871	-0.02212927
94	0xbcbcd3ea	-0.023050267
95	0x3d7bba22	0.061456807
96	0xbd2cfef3	-0.042235326
97	0xbe17c0c4	-0.14819628
98	0xbd38347e	-0.044971935
99	0xbd5df71f	-0.05419075
100	0xbdc5596f	-0.09636199
101	0xbdc0bd93	-0.094111584
102	0xbe0c9c1b	-0.13731425
103	0xbd16a1c5	-0.03677537
104	0x3d850a21	0.064960726
105	0x3d14625d	0.03622662
106	0x3a2eacba	0.00066633115
107	0x3d6cbc4f	0.057796773
108	0xbe0a7fd7	-0.1352533
109	0xbd7ced96	-0.061750017
110	0xbc771616	-0.015080949
111	0xbad9c988	-0.0016615847
112	0xbd456116	-0.04818829
113	0x3c5a59e5	0.013327097
114	0xbce8ee2e	-0.028433885
115	0xbc707236	-0.0146756675
116	0x3da34e27	0.07973891
117	0x3d5a4b7d	0.053294647
118	0xbe0b106c	-0.13580483
119	0xbd48279d	-0.048865903
120	0xbc0daf21	-0.008647711
121	0xbc7a0c45	-0.015261714
122	0x3d2dbf5c	0.042418823
123	0xbd1f6301	-0.038912777
124	0x3ca6d469	0.020364957
125	0xbcae9fe9	-0.021316485
126	0xbde5bd0a	-0.11217697
127	0x3d0751de	0.03303706
128	0xbd2fecfd	-0.04295062
129	0xbfefca51	-1.8733617
130	0xbe20218c	-0.15637797
131	0xbe85aa00	-0.26106262
132	0x3d215e29	0.03939644
133	0xbeace75f	-0.33770272
134	0xbc8b99aa	-0.017041046
135	0x3f9d19d3	1.2273506
136	0xbdc0aed1	-0.094083436
137	0x3e79e54a	0.24403873
138	0xbf70549f	-0.9387912
139	0x3f04cb11	0.51872355
140	0xbf45e179	-0.7729717
141	0xbf4dc6d8	-0.80381536
142	0x3c52cfb7	0.012866906
143	0xbd5c94c7	-0.053852823
144	0xbd018d79	-0.03162906
145	0xbfa48973	-1.2854446
146	0xbf7ea021	-0.9946309
147	0xbfb469ff	-1.4094847
148	0xbc128a67	-0.0089441305
149	0xbf81e78c	-1.0148787
150	0x3eb60d89	0.35557202
151	0xbd971ae4	-0.07378176
152	0xbf8c3f29	-1.0956775
153	0xbd8e4b8b	-0.069480024
154	0xbd9dd42e	-0.07706486
155	0x3d081f23	0.03323282
156	0x3e13f565	0.1444908
157	0xbdcf9cde	-0.10137342
158	0x3d842ee4	0.06454256
159	0xbd472533	-0.04861946
160	0x3eb8a2c7	0.3606169
161	0xbe189b50	-0.14902997
162	0x3bca2f94	0.0061702225
163	0xbfda9905	-1.7077948
164	0xbf9a4e95	-1.2055231
165	0xbc8a7864	-0.01690311
166	0x3f5fe919	0.87465054
167	0x3edc76bc	0.43059337
168	0xbd394ad8	-0.045237392
169	0x3eeac21b	0.45851216
170	0xbf480eec	-0.7814777
171	0xbe4cb061	-0.19989158
172	0xbe21087e	-0.15725896
173	0xbd4adb7d	-0.049525727
174	0x3ce262c0	0.027634978
175	0xbe4e83fb	-0.20167534
176	0xbf47b586	-0.7801136
177	0xbe1cbe00	-0.15306854
178	0x3f1f65b9	0.6226459
179	0xbe1c541d	-0.15266462
180	0xbde6d4b0	-0.11271036
181	0xbce49a09	-0.027905481
182	0x3fbafeea	1.4609044
183	0xbf654605	-0.89559966
184	0x3dcd9bcb	0.10039481
185	0x3d108068	0.035278708
186	0xbda6b9f7	-0.08140939
187	0xbec61c96	-0.38693684
188	0xbf0b80b0	-0.54493237
189	0xbe08d429	-0.13362183
190	0x3cfddb71	0.030988427
191	0xbf9ab106	-1.2085273
192	0xbcd7285e	-0.026264366
193	0xbcbc13dc	-0.022958688
194	0xbe9acc28	-0.30233884
195	0xbee76b33	-0.45198974
196	0xbe5e7caf	-0.2172725
197	0x3e2d5aea	0.16929212
198	0x3f69a1d3	0.9126255
199	0xbe44b9e2	-0.19211534
200	0xbde4c4e7	-0.11170369
201	0x3da299b1	0.079394706
202	0xbebec13b	-0.37256798
203	0xbf8e6f7d	-1.1127774
204	0x3fea42fc	1.8301692
205	0x3e5b1111	0.21393229
206	0xbfaf2755	-1.3683878
207	0xbdb80b59	-0.089865394
208	0xbf049779	-0.5179363
209	0xbdd797dc	-0.10527012
210	0xbd0f1f2e	-0.034941845
211	0x3e165b17	0.14683186
212	0xbe35d7ba	-0.17758074
213	0xc00ecd65	-2.2312863
214	0xbf8e46bf	-1.111534
215	0xbdddef49	-0.10836656
216	0x3d6d66b0	0.05795926
217	0xbf070e9e	-0.5275668
218	0xbe82bc93	-0.25534496
219	0x3e140bfd	0.14457698
220	0xbe7391f9	-0.23786153
221	0xbeba5a0f	-0.36396834
222	0xbed0c8c5	-0.40778175
223	0x3cfa8800	0.030582428
224	0xbed6adc4	-0.41929448
225	0x3d80c1b1	0.06286944
226	0xbebb8c5d	-0.36630526
227	0xbe3ffccb	-0.18748777
228	0x3eb40511	0.35160115
229	0xbe5e34e5	-0.21699865
230	0x3e910500	0.28324127
231	0xbd7bf70b	-0.061514895
232	0xbc95a476	-0.018266898
233	0xbe77a280	-0.24183083
234	0x3ec67d6b	0.3876756
235	0x3f07c31d	0.53032094
236	0xbf7921d0	-0.9731722
237	0x3e8c92ae	0.27455658
238	0xbfbc103e	-1.4692457
239	0x3ef265c4	0.47343266
240	0x3ea79dff	0.3273773
241	0xbf19bfe0	-0.60058403
242	0xbf18083d	-0.5938757
243	0xbf4e64c8	-0.8062253
244	0x3f206632	0.6265594
245	0x3d988ff0	0.07449329
246	0xbf6c2dfb	-0.9225766
247	0xbfa57706	-1.2926948
248	0xbd1519ea	-0.036401667
249	0xbf3cb8bd	-0.7371939
250	0xbd03b439	-0.032154296
251	0xbf9d19d6	-1.227351
252	0xbedaf419	-0.42764357
253	0xbe9bde3b	-0.30442986
254	0xbf0db8d9	-0.5536018
255	0xbd5526a8	-0.05203882

net.2.bias f4 [128]
0	0xbe179144	-0.14801508
1	0xbd932ea5	-0.07186631
2	0xbe633c09	-0.2219087
3	0xbeed5518	-0.46353984
4	0xbdf83c33	-0.12120857
5	0xbd5416a0	-0.05177939
6	0x3d968c50	0.07350981
7	0xbda118a2	-0.078660265
8	0xbdfc45e6	-0.123180196
9	0xbd9f0e76	-0.0776643
10	0xbeff7274	-0.49892008
11	0xbde51289	-0.11185176
12	0x3e121c67	0.14268647
13	0xbdb9d053	-0.09072938
14	0xbd9bdb2c	-0.07610163
15	0xbe0d829b	-0.13819353
16	0xbdae8a98	-0.085225284
17	0xbdaf7760	-0.08567691
18	0xbe8a7b8c	-0.27047384
19	0xbe04e011	-0.129761
20	0xbede8764	-0.4346267
21	0x3ec59bb1	0.38595346
22	0x3e0551ab	0.13019435
23	0x3d631eb3	0.0554492
24	0xbcb37f21	-0.021911206
25	0xbe0b42c7	-0.13599692
26	0xbdea168a	-0.1143008
27	0xbdc164f0	-0.094430804
28	0xbe814bcd	-0.25253144
29	0xbf0da584	-0.5533068
30	0xbdd37f34	-0.103269964
31	0xbc25866b	-0.0101028485
32	0x3eba0486	0.36331576
33	0xbed9fc20	-0.4257517
34	0x3e7d3b9f	0.24729775
35	0x3fd3305a	1.6499131
36	0xbf1e9f12	-0.6196147
37	0xbe179d9c	-0.14806217
38	0x3c841a72	0.016125891
39	0xbdaa6d2d	-0.08321605
40	0xbe53245a	-0.20619336
41	0xbba7089f	-0.0050974633
42	0xbf032b57	-0.51238006
43	0xbe0541ec	-0.13013428
44	0xbe11305c	-0.14178604
45	0xbde0871b	-0.10963269
46	0x3e189cd0	0.14903569
47	0xbf83a550	-1.0284824
48	0x3d5a6f85	0.05332901
49	0xbdd1c274	-0.10242167
50	0xbe0fedd7	-0.14055572
51	0xbd868e99	-0.06570167
52	0xbf40f5b8	-0.7537494
53	0xbdc47d53	-0.09594216
54	0xbe0f8c9a	-0.14018479
55	0xbe7bb0cc	-0.24579161
56	0xbe81b0d3	-0.2533022
57	0xbe90bad2	-0.28267533
58	0xbdc1b904	-0.09459117
59	0xbf6e916c	-0.93190646
60	0xbdc71456	-0.09720676
61	0xbe875989	-0.26435497
62	0xbea1ff6b	-0.3164018
63	0xbd17755e	-0.036977164
64	0x3e8ea51b	0.2786034
65	0xbe045aa1	-0.12925197
66	0xbdbd22aa	-0.09235127
67	0x3d33f92e	0.04393881
68	0xbd09adfa	-0.033613183
69	0xbd8f761d	-0.0700495
70	0xbe1d8880	-0.15384102
71	0xbe7f1c26	-0.24913082
72	0xbeacd0f5	-0.33753172
73	0xbe54b7ee	-0.20773289
74	0xbf34c86b	-0.70618314
75	0xbe09686e	-0.13418743
76	0xbd954cbc	-0.072900265
77	0xbf03c1eb	-0.5146777
78	0xbcf44e30	-0.029822439
79	0xbe3c4064	-0.18383938
80	0xbd834c06	-0.06410985
81	0xbd920fde	-0.07131933
82	0xbe25072d	-0.16116019
83	0xbaaf2a00	-0.0013363957
84	0xbdb91b42	-0.09038402
85	0xbd0cedb0	-0.034406364
86	0x3f10f70c	0.56626964
87	0xbcb50eb2	-0.022101734
88	0xbe4eb5b6	-0.20186505
89	0xbe597d06	-0.21239099
90	0x3d29d182	0.041459568
91	0xbd10c70e	-0.035346083
92	0xbdde4db8	-0.108546674
93	0xbe807fb5	-0.25097433
94	0x3efd7397	0.4950225
95	0xbe693396	-0.22773585
96	0xbe3b07d9	-0.18264712
97	0xbdc82cbc	-0.097741574
98	0xbee98572	-0.45609623
99	0xbe0fd135	-0.1404465
100	0xba1cea75	-0.00059858646
101	0xbd351d0c	-0.044217154
102	0xbde5676f	-0.11201369
103	0xbea11d48	-0.31467652
104	0x3dec8333	0.11548462
105	0xbd30c348	-0.043154985
106	0xbf6706f3	-0.9024498
107	0xbd7ffee1	-0.06249893
108	0xbddb6b64	-0.107138425
109	0xbd21f4c3	-0.039540064
110	0xbf2e3d16	-0.6806196
111	0x3fa1a769	1.2629215
112	0x3dc20379	0.094733186
113	0xbe8f2916	-0.27961034
114	0x3d2555a6	0.040364884
115	0xbe00cfe5	-0.12579305
116	0xbdabecd3	-0.0839478
117	0xbe067b23	-0.1313291
118	0xbe01897b	-0.12650101
119	0xbd24bee7	-0.04022112
120	0xbdbe0f15	-0.092802204
121	0xbdf2c515	-0.11853997
122	0xbe2b66c0	-0.16738415
123	0x3e994085	0.29932037
124	0xbf01b34e	-0.5066422
125	0x3deafaca	0.114736155
126	0xbcc7554b	-0.024332663
127	0x3e186c83	0.14885144

net.4.weight f4 [5, 128]
0	0xbd8e6185	-0.06952194
1	0x3ea8a3d6	0.32937497
2	0xbbb08cb9	-0.005387869
3	0xbf0e3ba7	-0.5555977
4	0x3cf8232b	0.030290207
5	0x3cd3c43b	0.025850406
6	0x400ae735	2.1703618
7	0xbd8f80ee	-0.07007013
8	0xbb8e990b	-0.0043517402
9	0xbd640ac7	-0.05567434
10	0xbf23ca61	-0.6398068
11	0xbd638c76	-0.055553876
12	0x40042cc9	2.0652335
13	0x3c216d4a	0.009852717
14	0x3ef74b84	0.482998
15	0x3d728fb2	0.05921907
16	0xbc68b866	-0.01420412
17	0xbb99fbd0	-0.004699208
18	0xbd6efd9b	-0.058347326
19	0xbb87ea5c	-0.004147811
20	0x3e0f08b2	0.13968161
21	0xbf023b55	-0.50871783
22	0x3ed6d77b	0.41961274
23	0x3eaff966	0.34369963
24	0xbc7c1789	-0.015386471
25	0x3d085280	0.033281803
26	0x3c887db4	0.016661502
27	0x3c40d1b6	0.011768749
28	0x3e59c8a0	0.21267939
29	0x3eca3a9e	0.39497846
30	0x3f4726e0	0.77793694
31	0x3fcebd25	1.6151472
32	0xbeff107d	-0.49817267
33	0xbf1239c0	-0.5711937
34	0xbf15f8eb	-0.58582944
35	0x3d154d8b	0.036450904
36	0xbf0801ac	-0.5312755
37	0x3c41e2e1	0.011833877
38	0x3ea72d84	0.32651913
39	0x3c730234	0.014832068
40	0xba54439c	-0.0008097233
41	0x3c81b0c7	0.015831364
42	0x3e742804	0.2384339
43	0x3d4b34e1	0.049610976
44	0x3d9cdbc6	0.07659106
45	0xbd8e6a85	-0.06953911
46	0x3ff96594	1.9484124
47	0xbed735e5	-0.42033306
48	0xbd2922b9	-0.04129288
49	0xbbb0f8f5	-0.0054007717
50	0x3c411d37	0.0117867505
51	0x3cd846d0	0.026400954
52	0xbf09818a	-0.53713286
53	0x3d35ebd4	0.044414356
54	0x3d22b0f0	0.039719522
55	0xbc74c5e5	-0.01493976
56	0x3f25751f	0.6463184
57	0xbf8ee9ad	-1.1165062
58	0x3e9a9efd	0.30199423
59	0xbdc3bda3	-0.09557655
60	0x3b31c467	0.0027125122
61	0xbf43aac1	-0.76432425
62	0x400c7e9b	2.1952274
63	0x3f44360c	0.7664497
64	0x3ef83d6e	0.48484367
65	0x3c9a7d70	0.018858641
66	0xbb8c5b03	-0.0042833104
67	0xbf57288b	-0.8404624
68	0x3cd78615	0.026309052
69	0x3b8b58a6	0.004252511
70	0x3d829c0e	0.06377421
71	0x3f931187	1.1489724
72	0xbc980301	-0.01855612
73	0xbcdda135	-0.027054409
74	0xbef33572	-0.47501713
75	0x3dca5e98	0.098813236
76	0x3d5eb9f5	0.05437656
77	0x3f4f68c4	0.81019235
78	0x3c94979b	0.018138697
79	0x3c85fce9	0.016355949
80	0x3d778dfb	0.060438138
81	0xb9ddebcd	-0.0004232809
82	0x3f112c9a	0.5670868
83	0x3e354eec	0.17705888
84	0xbd7643d9	-0.0601233
85	0x3d7b0994	0.06128843
86	0xbecf1bba	-0.4045084
87	0xbdc5a18f	-0.096499555
88	0xbeb5d667	-0.35515139
89	0xbf2648b9	-0.64954716
90	0x3c1411d4	0.009037454
91	0x3e1fbac0	0.15598583
92	0x3d00ce09	0.03144649
93	0x3fe2615e	1.7685964
94	0xbf07e6df	-0.53086656
95	0xbf1414e6	-0.5784439
96	0xbc9cdc09	-0.01914789
97	0x3d57f28e	0.052721553
98	0xbf13c523	-0.5772268
99	0xbda04d0b	-0.07827195
100	0x3e29bf86	0.16576967
101	0x3e716e05	0.23577125
102	0x3c80ef44	0.01573909
103	0xbce84fb3	-0.028358316
104	0x3e8bbf5c	0.27294433
105	0x3ed0d122	0.40784556
106	0xbef81d02	-0.4845963
107	0x3ce2b177	0.027672512
108	0xbd0da583	-0.034581672
109	0xbc396370	-0.011315212
110	0xbeda4c28	-0.42636228
111	0x401a578b	2.4115932
112	0xbe5601c2	-0.20899108
113	0x3e17ce8f	0.1482489
114	0x3e8b44c3	0.272009
115	0xbd328603	-0.043584835
116	0x3e36b1e2	0.17841294
117	0x3c0a3a64	0.008436773
118	0x3eedffc0	0.46484184
119	0xbbb03440	-0.0053773224
120	0xbd04253a	-0.032262065
121	0x3f564b7a	0.8370892
122	0x3efa013f	0.48829076
123	0xbc9c084d	-0.019046927
124	0x3e36bb05	0.1784478
125	0xbbd48db1	-0.0064866175
126	0xbbd5ad02	-0.0065208683
127	0xbf11c18c	-0.56935954
128	0x3c54b692	0.012982981
129	0x3f050cdb	0.5197274
130	0x3e193cd1	0.14964606
131	0xbf19b760	-0.60045433
132	0xbc50e886	-0.01275075
133	0x3cd13234	0.025536634
134	0x3ff83426	1.9390914
135	0x3d576c14	0.052593306
136	0x3c57856b	0.013154368
137	0x3da3bc4e	0.07994901
138	0xbf9e1f89	-1.2353374
139	0x3db3badf	0.08775877
140	0x3ff3dd06	1.9051826
141	0xbc5e481b	-0.013566996
142	0x3f8f9f36	1.1220462
143	0x3bd66dab	0.006543835
144	0xbbba97e3	-0.005694376
145	0x3d1d3eab	0.038389843
146	0x3ea54b06	0.322838
147	0xbc457fee	-0.012054427
148	0x3f3764a5	0.71637946
149	0xbf00c456	-0.50299585
150	0x3c681089	0.014164099
151	0x3dd62fef	0.10458361
152	0xbce78a2a	-0.028264124
153	0x3d670b2a	0.05640713
154	0xbbc92d4e	-0.006139434
155	0x3c1c21a7	0.009529508
156	0xbebfd112	-0.37464195
157	0x3faf5576	1.3697956
158	0x3efc357a	0.4925955
159	0x3fbbabcf	1.4661807
160	0xbf033e35	-0.51266795
161	0xbf096ea3	-0.53684443
162	0xbf1b2a4a	-0.60611403
163	0x3eb34450	0.35013056
164	0xbeedb907	-0.46430227
165	0x3eeacd5b	0.458598
166	0x3f097b10	0.53703403
167	0x3c050851	0.008119659
168	0x3e04a114	0.12952071
169	0xbd27999f	-0.04091799
170	0x3f3ed8f6	0.74549806
171	0xbb91f40d	-0.004454142
172	0xbd97d181	-0.074130066
173	0x3a891a60	0.0010460131
174	0x402c5fe4	2.6933527
175	0xbef0d4b8	-0.47037292
176	0xbd878537	-0.066172056
177	0xbbc7176e	-0.006075791
178	0xbd312540	-0.043248415
179	0x3cd4164f	0.025889544
180	0xbeedfc34	-0.46481478
181	0x3a731658	0.0009273044
182	0x3d20049e	0.039066903
183	0x3e58f617	0.21187626
184	0x3f1381d3	0.5761997
185	0xbf94292f	-1.1575068
186	0xbfba28f4	-1.4543748
187	0xbdbd3ac7	-0.092397265
188	0x3e8345a1	0.2563906
189	0xbf706672	-0.9390632
190	0x3ff14b1a	1.8851044
191	0x3e5453f4	0.2073515
192	0xbe1c0ce2	-0.1523929
193	0x3d3cac2e	0.04606264
194	0x3b937422	0.004499928
195	0x3e6fc5d9	0.23415317
196	0xbda4b055	-0.08041445
197	0xbb8ba85c	-0.0042620134
198	0x3cac8d0e	0.021063354
199	0x3e83e09a	0.25757295
200	0xbdf14fba	-0.11782785
201	0x3fac3a71	1.3455335
202	0xbeeddb75	-0.46456495
203	0xbd3fed2e	-0.04685705
204	0xbcbfc6ab	-0.023410162
205	0x3f16a74e	0.58849037
206	0xbd147988	-0.036248714
207	0x3ea5307c	0.32263553
208	0xbd7ff82b	-0.06249253
209	0x3bea6ccf	0.0071540843
210	0x3f5c2619	0.8599563
211	0x3eca6d6e	0.39536613
212	0x3ca80f50	0.020515114
213	0xbd83b15e	-0.064303145
214	0xbecf2378	-0.40456748
215	0x3ea2674b	0.3171943
216	0xbf669c43	-0.90082186
217	0xbf208f2a	-0.6271845
218	0x3e450e79	0.19243802
219	0x3f97d090	1.1860523
220	0x3c270388	0.010193713
221	0x3f9d8414	1.2305932
222	0xbf025268	-0.5090699
223	0xbeff5a35	-0.4987351
224	0x3e8756e2	0.26433474
225	0x3e8d7a8f	0.27632567
226	0xbf1d0d71	-0.61348635
227	0xbddd59d5	-0.1080815
228	0x3efe8118	0.49707866
229	0x3e88b8d3	0.2670351
230	0xbda06320	-0.078314066
231	0x3f5f2105	0.8715976
232	0x3f440a22	0.7657796
233	0xbee14689	-0.43999127
234	0xbef2f210	-0.47450304
235	0xbc27090b	-0.010195027
236	0xbc877a5c	-0.016537838
237	0x3d9140d7	0.07092445
238	0xbf0e9684	-0.5569842
239	0x401ac815	2.418462
240	0xbe5af0d7	-0.21380936
241	0x3e3eee15	0.18645509
242	0x3ef8b998	0.48579097
243	0x3e88ce1d	0.26719752
244	0x3d5fc5b2	0.054631896
245	0x3d6ae867	0.057350542
246	0x3ec8a981	0.3919182
247	0x3c8fc6e1	0.017550888
248	0x3d854a10	0.06508267
249	0x3f3f7600	0.7478943
250	0x3ed4357c	0.41447055
251	0xbc9bc61e	-0.019015368
252	0x3ebf4caf	0.37363192
253	0xbd8bdc79	-0.06829161
254	0x3cb0187e	0.021496054
255	0xbf12f4cb	-0.57404774

net.4.bias f4 [5]
0	0xbef01139	-0.4688814
1	0xbf070aa1	-0.52750593
2	0xbf1764d3	-0.5913822
3	0xbf292233	-0.6606781
4	0xbf211ca1	-0.6293431
